models/saved_models/Baseline MLP2.pth (torch, 302652 bytes, 1 tensors)

1.weight f4 [1, 75264]
00000000: c1de a6b9 e879 613b f22a 45ba 5d6c 27bb
00000010: c35e 44b9 709b 6d3b 0db0 d7b9 f7ca 613b
00000020: 46a7 1439 9df8 8039 a2dc c33a 5989 9cba
00000030: df20 0a3b 99f7 1dbb f1df 18bb 2502 d03a
00000040: 6bee bd3a 61d6 c239 7f4b f0ba e90e 283b
00000050: c6e4 40bb 42f9 2ebb 41de d7ba 9136 5a3a
00000060: e5d4 3d3b c702 83ba cc60 1bbb 0159 f8ba
00000070: aac0 ae39 280c dc3a 4b88 4c39 28e9 a13a
00000080: c7c2 aaba ba7d 3dba 7b70 c9ba d2ca 6d3b
00000090: 5195 9d3a d5f8 f639 8184 4e3b ebb4 90b9
000000a0: f4dd 39ba b49d 1ebb 91fd 36bb 0566 4138
000000b0: 54cf 4a3a a600 d838 6ec6 13bb 9a9b 59bb
000000c0: 0980 a239 facd 5a3b 514b 6d3b 7f66 873a
000000d0: 5acb 46bb f159 4abb 3640 2e3a b7f6 393b
000000e0: fc19 0fba 36d5 303b 0b89 28bb 7444 bd3a
000000f0: 80f3 d8b7 39b0 5cbb a5e9 253b 5385 d2b9
00000100: ee16 4abb c3f6 8eb9 5389 0a3b 6a7f f0ba
00000110: e5fa 163b 230f 37bb a5ab 463b cb3b 443b
00000120: 842c 3a3b ea4d ed38 5c8e 4c38 ff2c 053b
00000130: ba55 5a3b 7dca dfba 15c2 a13a ecb9 0a3b
00000140: 3297 2abb 26b5 e5ba f4b3 8eba 99c5 a03a
00000150: 4e52 98b9 1c24 593b 0e64 12bb add0 183b
00000160: b890 6eba aa0b 713a 3a1c 8b3a cbfc 2bbb
00000170: 00a3 193b 749f 9f3a fa1d 37bb f897 88ba
00000180: a081 9339 3068 dfba f539 2ebb 7767 1fbb
00000190: 22f0 ec39 ebe7 9eba a8dc bbba c93d 463a
000001a0: 1c83 29bb 03df 3c3b 476a e4b9 d492 073b
000001b0: 8f0e 0bbb 4c11 12bb 2b68 fa3a 3a14 c2b9
000001c0: 0126 463b 41be ffb9 6754 053b 7945 31bb
000001d0: c839 3eba 2d40 a7ba 08b5 27bb 7911 a33a
000001e0: d103 653b b818 a4ba 5996 98ba 60ef b83a
000001f0: f4a5 45bb 3d76 47bb 5f11 00bb e48b faba
00000200: 0882 05bb bae9 30ba c2d5 413b 78d9 c2b9
00000210: 0535 903a 9d5b c33a f4c6 a039 ca80 61bb
00000220: 8c86 2cba 271b e6ba fa77 ba3a 1db3 c83a
00000230: f3e3 1b3b ff52 f7b9 e938 2abb c157 65bb
00000240: 784b afba 653b 6c3a 3602 02bb 5d34 e9b7
00000250: c515 e33a bfe2 6cbb 64cc 543b 1652 1abb
00000260: 868a 5d3a ec93 08bb 9ee5 10ba 406e 693b
00000270: 6f94 1a3b 37ee d339 7867 d73a dc6b 62bb
00000280: 87ac ad3a 80c7 333b 46e5 ab3a b3c3 8d3a
00000290: 1d7b 683b 53f6 5c3b 0109 4f3b 633c a6b9
000002a0: 26d4 19bb 1dc4 5a3b 3175 0f3b e218 9539
000002b0: d807 2d3a 815b 66bb a448 173b bff2 1cbb
000002c0: 7999 9b3a 655b 09bb 1668 443b 806b 1d3b
000002d0: 08c3 3a3b 6ed8 e23a 5fd9 1bbb 3656 3bb8
000002e0: e3e3 efba 59d0 183b b342 31bb 1310 3d3b
000002f0: 6d39 043b 988a a3ba 370e 1c3b ba1c d339
00000300: e3e0 ceba 8e01 02bb b2e9 143b a78f 3f3b
00000310: 8eef 3ebb f8dc 103b 4cda 603b d8cc c4ba
00000320: cf7e 9eb9 475b 903a 1294 09bb e04e 53bb
00000330: 6216 623b 54d5 21ba 6dcf 583b 3be7 62ba
00000340: 4481 cbba 777a 92ba 5868 35bb c0d1 18bb
00000350: 5c1a 88ba 0ce1 153b 042c 6e3b 454b 4dbb
00000360: c296 12bb d5e9 8338 0816 0abb d949 683b
00000370: 1ebb 603b 9208 223b a0ce 6cbb d73a 6c3b
00000380: e492 6dbb c800 243a 327c 5fbb afbd 37bb
00000390: 80ed 6b3b 5002 fcba 3772 04ba 1646 54bb
000003a0: 0f9f 1dbb 78e4 653b a8fb f1ba 400c 48bb
000003b0: 7af6 083b b0af 063b f54a 37bb a20d 13bb
000003c0: 7478 55bb 5a57 8aba 906e 59bb de51 87ba
000003d0: aff0 90ba 4ef3 b13a 08f2 4e3a d1e0 43bb
000003e0: c3ac ae3a d676 b638 86a0 fb3a 45c1 383b
000003f0: 78dc 5fbb 2712 113b eaff d1ba 82bf 5d3b
-0.00031827952 0.0034404937 -0.0007521353 -0.0025546767 -0.00018727318 0.0036255978 -0.00041139164 0.0034453252
0.00014176694 0.00024599294 0.0014943073 -0.0011942788 0.0021076722 -0.0024103879 -0.002332684 0.001586978
0.001449061 0.00037162288 -0.0018333046 0.0025643653 -0.0029433235 -0.0026698862 -0.0016469435 0.0008324171
0.0028966006 -0.0009995335 -0.0023708818 -0.0018947424 0.00033331412 0.0016788291 0.00019505729 0.0012352811
-0.0013028019 -0.00072285125 -0.0015368605 0.003628422 0.0012022649 0.0004710617 0.0031512084 -0.00027600615
-0.00070902635 -0.0024202885 -0.0027922133 4.61098e-05 0.0007736583 0.000102998034 -0.0022548693 -0.0033204318
0.00030994441 0.0033386932 0.0036208222 0.0010330229 -0.003033361 -0.0030876363 0.00066471414 0.0028375813
-0.0005458889 0.0026982552 -0.002571645 0.0014439956 -2.5862595e-05 -0.0033674373 0.0025316265 -0.00040153656
-0.003083642 -0.00027268202 0.002113898 -0.0018348519 0.0023037728 -0.0027932606 0.003031471 0.0029942866
0.002840788 0.00011315553 4.8769973e-05 0.002032101 0.0033315257 -0.0017073896 0.0012341166 0.0021167947
-0.002603006 -0.00175253 -0.001088737 0.001226592 -0.0002905302 0.0033133095 -0.002233747 0.002331774
-0.0009100544 0.00091951585 0.001061327 -0.0026243206 0.0023443103 0.0012178258 -0.0027941451 -0.0010421267
0.00028134603 -0.00170446 -0.0026584838 -0.0024323144 0.0004519234 -0.001212356 -0.0014332728 0.00075623073
-0.00258655 0.0028819449 -0.00043566732 0.0020686882 -0.0021218394 -0.0022288142 0.0019104531 -0.00037017633
0.0030235054 -0.0004877914 0.0020344497 -0.0027049466 -0.0007256535 -0.0012760215 -0.002559008 0.001244112
0.0034944902 -0.0012519574 -0.0011641487 0.0014109425 -0.003015873 -0.0030435466 -0.0019541604 -0.0019115177
-0.0020371694 -0.0006748695 0.0029576872 -0.0003716459 0.0011002129 0.0014904622 0.0003066581 -0.003440904
-0.00065813283 -0.00175557 0.001422643 0.0015312169 0.0023786991 -0.00047173348 -0.0025973863 -0.0034994932
-0.0013373932 0.0009011536 -0.0019837744 -2.7800148e-05 0.0017325213 -0.0036145893 0.003247046 -0.0023547462
0.00084511226 -0.0020840121 -0.00055273797 0.0035618693 0.0023587008 0.0004042254 0.0016434034 -0.0034549152
0.001325027 0.0027432144 0.0013114593 0.0010815769 0.0035473772 0.0033716157 0.003159106 -0.0003170698
-0.0023472398 0.0033381053 0.002188992 0.00028438034 0.0006600595 -0.0035149755 0.0023084069 -0.00239484
0.00118713 -0.0020959016 0.0029969267 0.0024020374 0.0028497595 0.0017306933 -0.0023780686 -4.4664564e-05
-0.0018302168 0.0023317544 -0.0027047812 0.0028848692 0.002017583 -0.0012477217 0.0023812184 0.0004026646
-0.0015783574 -0.0019837352 0.00227223 0.002922991 -0.0029134485 0.0022104364 0.0034309803 -0.0015014661
-0.00030230588 0.0011013531 -0.0020992798 -0.0032243058 0.0034498204 -0.0006173451 0.003308262 -0.0008655672
-0.0015526195 -0.0011175413 -0.0027680602 -0.002331838 -0.0010383832 0.0022869734 0.0036342153 -0.0031325382
-0.002236769 6.2901214e-05 -0.002107026 0.0035444407 0.0034291218 0.0024724347 -0.00361339 0.0036045813
-0.0036250884 0.000625622 -0.0034101126 -0.0028036644 0.0035999715 -0.0019226763 -0.000505242 -0.0032390407
-0.0024051105 0.0035078805 -0.001846184 -0.003052488 0.0020898865 0.0020551495 -0.0027968262 -0.0022438546
-0.0032573016 -0.0010554597 -0.0033177473 -0.0010324081 -0.0011058057 0.0013576539 0.0007894342 -0.002988864
0.0013326633 8.700571e-05 0.001919762 0.002819137 -0.003415851 0.0022136064 -0.0016021703 0.0033836071
