models/saved_models/Baseline MLP3.pth (torch, 302652 bytes, 1 tensors)

1.weight f4 [1, 75264]
0	0x3b3501d1	0.002761949
1	0x3a9bb759	0.0011880203
2	0xbb6eacbd	-0.0036418878
3	0x3a260067	0.00063324574
4	0xbb3b359a	-0.0028565885
5	0x3b447899	0.0029979108
6	0xbb5ad383	-0.003339023
7	0xba249916	-0.0006278915
8	0x3b3020a4	0.0026874924
9	0x3b6b6186	0.0035916283
10	0xba2afb91	-0.00065224717
11	0xbb5ed6fe	-0.0034002657
12	0x3a7fd392	0.00097590045
13	0xbab34f78	-0.00136803
14	0x3ad79a78	0.0016449234
15	0x3b04eb23	0.0020281754
16	0xbad9c9c1	-0.0016615913
17	0xba4f89a3	-0.0007916933
18	0x3b3ad353	0.0028507307
19	0xbab2a4c3	-0.0013629425
20	0xba1594c9	-0.00057060696
21	0xbb46b9e0	-0.0030323192
22	0x3ace44d5	0.0015737066
23	0xba2b0839	-0.00065243576
24	0x3b33de1d	0.0027445622
25	0x3a298ffe	0.0006468295
26	0x3ae88b74	0.0017741756
27	0xb9930b5a	-0.00028046482
28	0x39bae695	0.00035648482
29	0x3998e3fd	0.00029161564
30	0x39b10176	0.0003376116
31	0xbaeacc5a	-0.0017913685
32	0xba46706f	-0.00075698545
33	0xb9908dd8	-0.00027571502
34	0xbb67e44a	-0.0035383874
35	0x3b00721c	0.0019599264
36	0x3aa62920	0.0012677051
37	0xbac111b4	-0.0014730007
38	0x3b6a79b2	0.0035778102
39	0xbb6299a2	-0.0034576436
40	0x3b2b4041	0.0026130828
41	0x3ab03013	0.0013442062
42	0x3aa3c10d	0.0012493447
43	0x3b6a576e	0.0035757679
44	0x3a9e414b	0.0012073902
45	0x3ab86cf4	0.0014070556
46	0xb9333b42	-0.00017092846
47	0xbb276ed9	-0.0025548248
48	0xbb48398b	-0.0030551876
49	0x3a304382	0.00067239266
50	0xbb2630cd	-0.0025358677
51	0xba815631	-0.0009867606
52	0x3af35256	0.0018563967
53	0x3a144e8a	0.0005657455
54	0x3a4b6520	0.0007758904
55	0xb928f83d	-0.00016114204
56	0xbb3f52de	-0.002919368
57	0xb8b37577	-8.557265e-05
58	0xbb4ac76d	-0.003094162
59	0x3b55c7b6	0.0032620258
60	0xbae1abbe	-0.0017217321
61	0x3a0bb5d1	0.0005329522
62	0xbb10c389	-0.0022089204
63	0xbb2e14cf	-0.0026562696
64	0xba56fd08	-0.0008201157
65	0x3b43d358	0.002988061
66	0xbafe19ca	-0.0019386348
67	0x398159f4	0.00024671818
68	0x3b4aa70d	0.0030922324
69	0x3b1872cc	0.0023261784
70	0x3a29d2e3	0.0006478263
71	0x3b31aef4	0.0027112337
72	0xbad50dd0	-0.0016254727
73	0x388cf1eb	6.720781e-05
74	0x38a1dadf	7.717846e-05
75	0x3a7e3e10	0.0009698579
76	0x3ae842b2	0.0017720072
77	0x3a09f360	0.0005262401
78	0xb912c6d3	-0.00013997713
79	0xbb608dde	-0.0034264247
80	0xbaf37201	-0.0018573405
81	0xbb6d820f	-0.003624085
82	0x3a03ce47	0.0005027991
83	0xbaca98cc	-0.0015456914
84	0x3b2393e7	0.0024959983
85	0x3b3d6479	0.0028898998
86	0xb94a6668	-0.0001930237
87	0xbb5e5533	-0.0033925294
88	0x3b5325de	0.0032218616
89	0x3b2a72bb	0.0026008326
90	0x3a7d2061	0.0009656009
91	0xbb388ea0	-0.0028161183
92	0x3a8afa36	0.0010603133
93	0xbad37984	-0.0016134237
94	0xbb0ac52d	-0.0021174655
95	0xbae658e3	-0.0017574098
96	0x3a95335c	0.0011383104
97	0x3adce647	0.0016853296
98	0x3b02e5c0	0.0019973367
99	0x39e40e13	0.00043498035
100	0xbb2677ad	-0.0025400922
101	0x3b2e2347	0.002657132
102	0x3b6b7193	0.003592585
103	0x3b44eec0	0.0030049533
104	0xbad1bfe1	-0.0016002619
105	0xbaab2cfe	-0.0013059673
106	0x3b00ec2d	0.0019672022
107	0xbb603f20	-0.0034217313
108	0x3b49d5c2	0.0030797576
109	0x3aa39d58	0.0012482805
110	0x3b60202f	0.003419887
111	0x398f6529	0.00027350456
112	0xbb05eac8	-0.002043413
113	0x3b65e000	0.0035076141
114	0x3b323ca7	0.0027196796
115	0xbb3331c6	-0.00273429
116	0x3b356eeb	0.002768452
117	0xbb5c687a	-0.0033631609
118	0xbb414f7b	-0.0029496837
119	0xb9b384bf	-0.00034240444
120	0x39fc0c49	0.0004807434
121	0xb9b2491c	-0.00034005276
122	0xba7fda5e	-0.0009760017
123	0xba7a4d2a	-0.00095482415
124	0x3a8d110c	0.0010762527
125	0x3abba353	0.0014315642
126	0x39562f21	0.00020426187
127	0x3a8d638b	0.0010787112
128	0x3aae79b4	0.0013311417
129	0xb9038fc9	-0.00012546698
130	0xbac91d11	-0.0015343745
131	0x3a9644c2	0.0011464583
132	0xba6ff102	-0.00091530394
133	0x3aef6c3e	0.0018266512
134	0xbb5d2052	-0.0033741188
135	0x3a9b14ca	0.0011831757
136	0xba186ec3	-0.00058148446
137	0x3b57b6ab	0.0032915275
138	0xbb2eb4d0	-0.0026658066
139	0xbb4c4180	-0.003116697
140	0x3b1f8952	0.0024343324
141	0x3ab9c499	0.001417297
142	0x3b53fb9f	0.0032346023
143	0xba32c1c7	-0.0006819036
144	0x3b4081db	0.0029374275
145	0x3b07185b	0.0020613882
146	0x3a67e9c5	0.0008846785
147	0xbb46026a	-0.0030213841
148	0xbb1ffd0d	-0.0024412305
149	0x3b175dc1	0.0023096653
150	0xbb1030b6	-0.002200169
151	0x3b203346	0.0024444624
152	0xbb25b7a4	-0.002528646
153	0x3a9e2bd1	0.0012067502
154	0xba2cdb33	-0.00065939425
155	0xbae1e61f	-0.0017234719
156	0x3992e995	0.00028021322
157	0xba6ec358	-0.0009108088
158	0x3af60fde	0.0018773039
159	0xba948b26	-0.0011332973
160	0x39bafef6	0.00035666645
161	0xba817424	-0.0009876532
162	0x3a580931	0.0008241116
163	0xb90b45f5	-0.00013282134
164	0x3aa86ae2	0.0012849236
165	0xbb4f78c5	-0.0031657678
166	0x3b048704	0.0020222077
167	0xb98b9813	-0.0002662545
168	0x3b471638	0.0030378234
169	0xb9fb2104	-0.0004789905
170	0x3a9e23a7	0.0012065069
171	0x3b434381	0.0029794874
172	0xbb69113c	-0.003556325
173	0xbae7ce6f	-0.0017685423
174	0x3a807030	0.000979906
175	0xbab9abb1	-0.0014165548
176	0x3919212b	0.00014603573
177	0x3b10e213	0.0022107407
178	0x3a42288d	0.0007406555
179	0x397d509c	0.0002415799
180	0x3b6d4e0b	0.0036209847
181	0xbb5d906e	-0.003380801
182	0xbb4151b8	-0.002949817
183	0xba7416e5	-0.0009311273
184	0xb92aaa26	-0.00016275849
185	0xbb3f034a	-0.0029146248
186	0x39fe3aa7	0.00048490355
187	0xbaaf624a	-0.0013380733
188	0xba8b6d2e	-0.0010637396
189	0xbb1f7a15	-0.0024334241
190	0x3b5491f0	0.0032435618
191	0xbb504348	-0.0031778384
192	0x3ac14678	0.0014745733
193	0x3a1d83bc	0.00060087047
194	0xbb09d792	-0.002103303
195	0xba91760c	-0.0011097803
196	0xbb6bc9c7	-0.0035978423
197	0xbab61455	-0.0013891557
198	0xba54e624	-0.0008121452
199	0xba877bf5	-0.0010336625
200	0xbb25b4d3	-0.0025284782
201	0x3ae106f1	0.0017168206
202	0xbb65fa0b	-0.0035091664
203	0x3986885a	0.00025660062
204	0xba3db157	-0.00072362035
205	0xbb00a51b	-0.001962966
206	0x3b13334b	0.0022460993
207	0xba66b673	-0.0008800991
208	0xbb1b4672	-0.0023693112
209	0x3aaecf19	0.0013336866
210	0xbb19df8d	-0.0023479194
211	0x3b1355ba	0.0022481517
212	0x3a5b5599	0.0008366942
213	0xbb3fd84f	-0.0029273217
214	0xbb57c05d	-0.0032921054
215	0x3b34e5d0	0.00276028
216	0x394f7239	0.0001978361
217	0x3b5f22da	0.0034047873
218	0xba4aac56	-0.00077313685
219	0x3a74f52f	0.00093443965
220	0x3a3bbb66	0.00071614084
221	0x3b4fff28	0.0031737778
222	0x3b233791	0.0024904946
223	0xbaa40d46	-0.0012516163
224	0x3b16fc85	0.0023038697
225	0xbb26d5fa	-0.002545713
226	0xbb2b88e6	-0.0026174127
227	0x3ae42762	0.0017406757
228	0xb991cbed	-0.00027808492
229	0x3b58381d	0.003299243
230	0xba45cbd3	-0.0007545326
231	0xbb5c0e36	-0.0033577806
232	0xba2f3458	-0.000668352
233	0x3b481f72	0.003053632
234	0xbb2547a8	-0.0025219712
235	0x3af114f0	0.0018393081
236	0xbb2e86b9	-0.0026630594
237	0xbb4c5fef	-0.003118511
238	0x3a7239b5	0.00092401664
239	0x3a82aebd	0.0009970289
240	0x3a2d8118	0.0006618663
241	0x3b1d22a3	0.0023976944
242	0xb9e787ff	-0.00044161078
243	0xb8f44dc6	-0.00011649313
244	0x3a4dda4b	0.00078526576
245	0xbb0edd28	-0.00217993
246	0xbaf2b64c	-0.0018517463
247	0xbb56ab39	-0.0032755865
248	0xbb494c87	-0.003071578
249	0xbb64b33b	-0.0034896869
250	0xbacca5ef	-0.0015613417
251	0x3b32858a	0.002724024
252	0x3b265da3	0.0025385402
253	0xbb0465f8	-0.002020238
254	0xbb0fc80e	-0.002193931
255	0xba0d179f	-0.0005382243
