models/saved_models/Baseline MLP1.pth (torch, 302652 bytes, 1 tensors)

1.weight f4 [1, 75264]
-0.00032840355 -0.0032193419 -0.000803535 -0.0004933629 -0.0011849987 -0.0004522041 0.0028307794 -0.0020024185
0.003579036 0.00084224436 -0.0019707375 -0.0006823612 -0.0025902588 0.0023912352 -0.0019563078 -0.0020200703
-2.8949038e-05 -0.0027637365 -0.00230689 0.0009913713 0.0022530865 -0.0014327562 0.002444625 0.0016476079
0.0019499903 0.0026305537 -0.0021527421 -0.0018834912 -0.0030160581 0.0028336046 5.6691395e-05 -0.0020006238
-0.00041027664 -0.001990034 0.0026586803 -0.0002944505 -0.0023049372 -0.00044506832 -0.0003169242 -0.0002698402
0.0024561316 0.0021408075 0.0018096955 0.0026324461 -0.0023158947 -0.0030143738 -0.001396766 0.0007707856
-0.00069253385 0.001103255 -0.0011818218 -0.0011234644 0.001936327 0.00023686788 0.00015543368 0.0025322752
0.0021568658 0.002879481 0.0030309015 -0.0029411705 -0.001519197 -0.0015585364 0.0020331282 0.0030779704
-0.0009200881 -0.0035765588 -0.0025557317 -0.0034736576 0.0022709277 -0.0020342637 0.0012937207 0.00036567636
-0.00064623245 0.0030155322 0.0010570327 -0.000754971 0.0013067686 -0.001011151 -0.00043187 0.00054712343
-0.0007455687 0.002468337 -0.0031171672 -0.0007301343 -0.0035968435 0.001625096 0.0005648282 -0.0021684684
-0.002383484 0.00029460868 -0.0015214036 0.0022880912 0.0006799504 -0.0022210728 0.0022964154 2.276268e-05
0.0010187248 0.00043519933 0.0020584434 0.00218734 0.0012932875 -0.0027447212 0.0034195522 0.0017179812
-0.00011054359 -0.00028229592 0.0036312493 -0.0035012246 0.002117227 -0.0019883832 -0.001433673 0.00034015052
0.0017114759 -0.00074246054 -0.0028803428 0.0012744233 0.0019408704 -0.0027947293 -0.0029818052 -0.0010778161
0.0006390267 -0.003089725 -0.003556472 0.000101708356 0.00029372223 0.0010706746 -0.0018861209 -0.00231361
-0.0008500728 0.0007439084 0.0014809712 -3.3880482e-05 -0.00091319566 0.0012409514 0.0024469506 -0.0029377171
-0.0006811467 0.0032136382 -0.0027376611 -0.0023998593 0.0026979449 0.003526371 0.003429774 -0.0035088987
-0.003090389 -0.0026512754 -0.0015667311 0.0022784295 0.0035389126 -0.0034655181 0.0017801537 0.0014905551
-0.00084223785 0.0018765139 -0.0030784018 0.0024660693 0.0035007147 -0.00033259412 0.0020613081 -0.000113913346
0.0015762339 0.0029002398 0.0009646462 -0.0019272597 -0.0029934605 0.001070865 0.0032707523 -0.0032773567
0.0011148981 0.0027786288 0.0025980298 -0.002583478 0.0021850176 0.0020904292 0.0016305371 0.00079056004
0.00060078054 -0.002504793 -0.0018023842 0.0026244 -0.0012446396 -0.0008791053 -0.0028920271 0.0002749259
-0.00097498967 -0.0032526022 -0.0008641202 -0.0007760647 -3.0177878e-05 -0.00072784006 0.002249287 0.0035599247
-0.0025190986 -0.0024630295 0.0022417158 -0.0019183132 0.0007922617 -0.00317552 -0.0029329269 -0.0035202142
0.00034824185 -0.0009774313 0.0006976178 -0.0006034611 0.0013790412 0.00012712904 -0.0001750921 0.0018497098
-0.00020816957 -7.930634e-05 0.0019516288 0.00045716684 -0.0011330054 0.0016078531 0.0020527106 -0.003291567
0.0025247799 0.0016775576 0.003542825 0.0022274337 -0.00033480456 0.0025586488 -0.0010050724 -0.0030490581
0.0026588493 -0.0036095236 -0.00072885986 0.0017409403 -0.0025389334 0.0024026702 0.0034052571 0.003438832
-0.0033396997 0.0026205762 -0.0018136471 -0.00083244627 0.0035140617 -0.0026948694 0.0018021169 0.0011371394
-0.0015155456 -0.0001890491 0.0012033847 -0.002601266 0.00081217557 0.0026870975 -0.0020686735 0.0030816728
-0.0002665682 0.00057992886 0.0001252571 0.0022672608 0.0024848075 -0.0009461997 0.00030639998 -2.175762e-05
00000000: 942d acb9 98fb 52bb 52a4 52ba 0655 01ba
00000010: f551 9bba cf15 edb9 9984 393b 023b 03bb
00000020: 438e 6a3b 10ca 5c3a 7d27 01bb 7ce0 32ba
00000030: 55c1 29bb 45b6 1c3b 6635 00bb 2863 04bb
00000040: 96d7 f2b7 ce1f 35bb 312f 17bb e7f0 813a
00000050: 85a8 133b 52cb bbba 0036 203b 8cf4 d73a
00000060: d196 ff3a 5e65 2c3b 0515 0dbb 7adf f6ba
00000070: 0fa9 45bb ffb3 393b ecc7 6d38 e61c 03bb
00000080: 661a d7b9 3b6b 02bb 413d 2e3b 7a60 9ab9
00000090: 6e0e 17bb 0f58 e9b9 d928 a6b9 5779 8db9
000000a0: 0df7 203b ca4c 0c3b 4e33 ed3a 1e85 2c3b
000000b0: 44c6 17bb cd8c 45bb b113 b7ba 8c0e 4a3a
000000c0: 298b 35ba 189b 903a 5ce7 9aba 3641 93ba
000000d0: 5acc fd3a bd5f 7839 e9fb 2239 87f4 253b
000000e0: 345a 0d3b adb5 3c3b 17a2 463b a7c0 40bb
000000f0: cb1f c7ba ce47 ccba 3b3e 053b c6b7 493b
00000100: 1132 71ba b364 6abb 107e 27bb 4ea6 63bb
00000110: d8d3 143b 4851 05bb 1092 a93a 40b8 bf39
00000120: ed67 29ba 3ca0 453b 228c 8a3a 3fe9 45ba
00000130: e147 ab3a 9988 84ba 9c6c e2b9 d56c 0f3a
00000140: 4572 43ba d3c3 213b 6349 4cbb 7c66 3fba
00000150: 05b9 6bbb 2c01 d53a fb10 143a dd1c 0ebb
00000160: 3a34 1cbb b575 9a39 d569 c7ba cdf3 153b
00000170: b33e 323a 6b8f 11bb 757f 163b 7cf2 be37
00000180: bb86 853a 772b e439 f3e6 063b 7a59 0f3b
00000190: 8783 a93a c8e0 33bb 911a 603b e22d e13a
000001a0: a3d3 e7b8 1e01 94b9 41fa 6d3b cd74 65bb
000001b0: 2dc1 0a3b 894f 02bb 15ea bbba 3b56 b239
000001c0: 9a53 e03a afa1 42ba 22c4 3cbb 8d0a a73a
000001d0: ce64 fe3a c727 37bb 646a 43bb 8245 8dba
000001e0: 5b84 273a fc7c 4abb b313 69bb 424c d538
000001f0: bbfe 9939 e155 8c3a b737 f7ba ef9f 17bb
00000200: 6cd7 5eba d902 433a 261d c23a e41a 0eb8
00000210: 8663 6fba 6ba7 a23a 055d 203b b786 40bb
00000220: fb8e 32ba e79b 523b 556a 33bb f546 1dbb
00000230: 01d0 303b b01a 673b 0fc6 603b 8df5 65bb
00000240: 2088 4abb 05c1 2dbb c65a cdba b451 153b
00000250: 1aed 673b bf1d 63bb 0c54 e93a bb5e c33a
00000260: a0c9 5cba 5cf5 f53a 03bf 49bb c79d 213b
00000270: 3f6c 653b 0760 aeb9 0317 073b c3e4 eeb8
00000280: a299 ce3a f311 3e3b 50e0 7c3a 1b9c fcba
00000290: ef2d 44bb 445c 8c3a 1e5a 563b ecc8 56bb
000002a0: c621 923a a819 363b b543 2a3b 924f 29bb
000002b0: 8332 0f3b 95ff 083b bfb7 d53a 963d 4f3a
000002c0: b37d 1d3a 7427 24bb fa3d ecba 20fe 2b3b
000002d0: 2d23 a3ba c273 66ba 2a88 3dbb ee23 9039
000002e0: 7396 7fba 9c29 55bb 2086 62ba d270 4bba
000002f0: 8026 fdb7 85cc 3eba c668 133b a04d 693b
00000300: 7617 25bb c76a 21bb c0e9 123b e96f fbba
00000310: c8af 4f3a 631c 50bb 5936 40bb 65b3 66bb
00000320: 3b94 b639 271d 80ba 57e0 363a 9731 1eba
00000330: f2c0 b43a f14d 0539 ed98 37b9 f671 f23a
00000340: 1848 5ab9 4451 a6b8 cccd ff3a e5af ef39
00000350: 5a81 94ba 99be d23a c586 063b 55b7 57bb
00000360: c776 253b 7ee1 db3a be2e 683b 23fa 113b
00000370: b588 afb9 01af 273b a2bc 83ba b5d2 47bb
00000380: 1740 2e3b c28d 6cbb f510 3fba 4330 e43a
00000390: 3c64 26bb 1e76 1d3b bc2a 5f3b 075e 613b
000003a0: ddde 5abb f9bd 2b3b e6b7 edba 8638 5aba
000003b0: 2c4c 663b 689c 30bb 0235 ec3a 110c 953a
000003c0: 46a5 c6ba 7b3b 46b9 e4ba 9d3a 007a 2abb
000003d0: 2ee8 543a 041a 303b 9592 07bb e4f5 493b
000003e0: 2ec2 8bb9 5e06 183a 7257 0339 5396 143b
000003f0: 27d8 223b 630a 78ba 4fa4 a039 2284 b6b7
