models/saved_models/Baseline MLP0.pth (torch, 302652 bytes, 1 tensors)

1.weight f4 [1, 75264]
00000000: 695c 51ba 64d1 403a 759a e8ba cc4a 0c3b
00000010: 0c96 523b 7040 2fbb fea2 4f3b 4ed6 323a
00000020: 437d 303b 9768 013a a75f e63a b0e9 06ba
00000030: e726 383b 8a3c 0d3a 700a dfba 6790 733a
00000040: f51f dcba d11d e0b9 920c c2ba eb77 1e3b
00000050: 4c91 3cbb 6f41 dcba cde8 86ba 55a2 0fbb
00000060: 645f b439 b9f0 6bbb e9bc 573b 8cec 4abb
00000070: b66c 383b eb04 1f3a 1722 9bba 3c9e 133b
00000080: b7eb 143a 5a02 413b dcea d039 c9ac 96ba
00000090: 445e 803a 858f 81ba 6912 c93a d247 553b
000000a0: c416 0a3b dedd d0ba 28e6 093b 5cf8 2a3a
000000b0: 7ca0 f23a cb99 11bb 0e79 6cbb 2297 b8ba
000000c0: aa3a 37bb 6503 443b a69c 893a cbe5 c53a
000000d0: 6519 973a c7fa 84b8 c7f3 3a3b e3ba 29bb
000000e0: efa7 7039 320c 23bb 0952 933a d888 a4ba
000000f0: 4865 923a d213 47ba ca20 463b 3596 0dbb
00000100: 3d78 0ebb 717a 0ebb b3dc 563b 6837 9f3a
00000110: abdd 653b 1b25 45bb 63f1 6cbb d4e4 3abb
00000120: c2b1 20bb cf83 c13a af13 ab3a 837e 463b
00000130: 28bb f6ba 89d9 22bb 287e fd3a 9a1d c1ba
00000140: f0fb 103b b8bf 62ba 02a7 083b da9a 39bb
00000150: e61a f1ba f3a8 913a d501 4a3a 309f 73ba
00000160: 2664 0e3b 2f65 223b 653b 2dbb 8f10 ffba
00000170: 92bc 5a3b d436 a1ba 5460 a9ba 7824 67bb
00000180: 30cd 08bb 2bb2 6e3a 7e3f fcb9 f966 2dbb
00000190: 354f b338 4d2d 23bb 04ab 4abb 558b 03bb
000001a0: e412 51bb 341b 18bb 47ca 6e3b fc79 343a
000001b0: 853a 933a 8fcd 5ebb 79e4 1cbb 0f07 9fba
000001c0: 006b 153a e132 52bb 63db cdba 1803 0fbb
000001d0: 5d79 2937 58c7 b1ba d06d 84b9 e6df 21bb
000001e0: f2f7 23bb 785d 0bbb d989 a3ba d68b 3cbb
000001f0: f34b 483b a2a3 3dba df88 4d3b 1bdd 943a
00000200: 3049 4abb db50 253b 8574 83ba fe23 b7ba
00000210: 4b4a 46bb 187d 6dbb bbb1 883a 09bb 50ba
00000220: 7c01 ba3a 030b 44bb a85a 313b 775a 2fbb
00000230: ccfe 24ba 0895 473a eda5 f63a 6ada 403b
00000240: fb9c 593b 846a 3dbb 097a 703a 0380 cdba
00000250: 916c d1b9 4fcd 32bb d496 593b 2754 2fbb
00000260: df57 ff3a 03e8 a73a d740 9b3a c826 01bb
00000270: 3322 593b a3fa 513a 08d7 f539 6d84 52bb
00000280: a78f c83a 8e59 0fba 72e0 daba 3030 4d3b
00000290: 0409 553a 2d2b 04bb 09d1 f1ba 6687 36b9
000002a0: 2362 053b dc2b 74ba 0c4d 08bb a39b a3ba
000002b0: c376 32bb 2563 aa3a cfe7 383b 07e5 60bb
000002c0: 6bec 5d3a 83cf f63a 3544 2d3a 0825 aaba
000002d0: e75d f93a ac12 fb3a 70a6 b23a 68e8 27ba
000002e0: d506 7dba a872 cc39 8fcc 28ba 0760 8eba
000002f0: 2fb2 183b e34b 4d3b d430 bdb9 eef0 55ba
00000300: 4e18 5f38 8c36 64b9 a2b8 653a ece2 853a
00000310: b6f7 58bb 6a50 b0ba c02b 493b d81d ba3a
00000320: 941a 3eb9 3706 10bb 7326 12bb e7fb 55bb
00000330: f1bb 9bba 0e58 a13a 3d51 183b 7595 dc3a
00000340: e328 53bb d6a7 0fbb 9acc 16ba 7b15 673b
00000350: a639 0a3a 9774 77ba d8a8 c53a 02f9 b5ba
00000360: 669e 1abb ab5b 2e3b d83d d9ba 888d 3fba
00000370: 74a4 6dbb b5e0 1f3b 89fc 343b 121f ae3a
00000380: 3e91 26bb 84c3 6bbb 2704 42bb b322 323b
00000390: f660 e53a 8705 493b ae49 fa3a 98d6 713a
000003a0: 49b7 15b8 22ac 35bb 37ab 4cbb 7e70 5fbb
000003b0: 6794 c33a 8191 eaba c24d 40ba 907a 09bb
000003c0: f11e 2eba 7522 28bb 1c17 1cbb 047b 9e3a
000003d0: 9dfd 8dba 2079 133b 9b45 99ba b73c 2fbb
000003e0: ec97 28ba ad98 e7ba 392b 92ba 876a 63bb
000003f0: 38a7 053b d44f 26bb 5d22 f03a 9ecd d83a
-0.00079864875 0.00073554204 -0.0017746227 0.0021406887 0.0032132892 -0.0026741289 0.0031682844 0.0006822095
0.002693013 0.00049365446 0.0017576114 -0.00051465165 0.002809936 0.0005387744 -0.001701666 0.0009291232
-0.0016794192 -0.00042746824 -0.0014804772 0.0024180363 -0.0028773127 -0.0016804169 -0.0010292769 -0.0021916826
0.00034403347 -0.0036001636 0.0032918996 -0.0030963747 0.0028140969 0.00060661015 -0.0011835721 0.0022524735
0.0005680876 0.0029450865 0.00039847835 -0.0011495586 0.0009793718 -0.0009884691 0.001534057 0.003254403
0.0021070698 -0.0015935262 0.0021041725 0.0006521994 0.0018510963 -0.0022216912 -0.0036082896 -0.0014083127
-0.002795855 0.002990925 0.0010498955 0.0015098391 0.0011527954 -6.3409614e-05 0.002852665 -0.0025898747
0.00022950744 -0.0024879095 0.0011239658 -0.001255299 0.00111691 -0.0007594201 0.0030231946 -0.0021604423
-0.0021739148 -0.0021740461 0.0032785356 0.001214725 0.0035074751 -0.003008193 -0.003615462 -0.002851774
-0.0024520014 0.0014764013 0.0013052131 0.003028781 -0.0018824087 -0.00248489 0.0019339966 -0.0014733553
0.0022122823 -0.0008649784 0.0020851498 -0.0028321058 -0.0018394857 0.0011112973 0.00077059615 -0.0009293435
0.0021727174 0.0024779548 -0.0026433107 -0.0019459891 0.0033376557 -0.0012299665 -0.0012922385 -0.003526954
-0.0020874254 0.00091055286 -0.0004811249 -0.0026459082 8.5501386e-05 -0.0024898828 -0.0030924687 -0.0020072062
-0.0031902129 -0.0023209574 0.0036436485 0.0006884632 0.001123265 -0.0033997034 -0.0023939891 -0.0012132841
0.0005699843 -0.0032073783 -0.0015705641 -0.0021821912 1.0101442e-05 -0.0013563437 -0.0002525882 -0.0024700104
-0.0025019613 -0.0021265429 -0.0012476995 -0.0028769872 0.0030562847 -0.0007234161 0.00313621 0.0011357398
-0.0030866377 0.0025225196 -0.0010029232 -0.0013972518 -0.0030256684 -0.0036237892 0.0010428944 -0.0007962441
0.0014191116 -0.002991379 0.0027062092 -0.0026756802 -0.0006294071 0.0007613455 0.001881776 0.002942706
0.003320514 -0.00289026 0.0009173458 -0.0015678409 -0.00039944475 -0.0027283018 0.0033201473 -0.002675304
0.0019481144 0.0012810234 0.0011844885 -0.0019706953 0.0033131957 0.0008010065 0.00046890252 -0.003212239
0.0015301601 -0.0005468362 -0.001669897 0.003130924 0.00081266486 -0.0020167336 -0.0018449138 -0.00017407312
0.0020352683 -0.0009314397 -0.0020797877 -0.0012482296 -0.0027231432 0.0012999518 0.002821434 -0.0034316198
0.000846571 0.0018830154 0.000660959 -0.0012981007 0.0019025177 0.0019155345 0.0013629925 -0.00064051757
-0.0009652202 0.00038995338 -0.0006439173 -0.0010862359 0.0023299565 0.003132575 -0.0003608527 -0.00081612065
5.318998e-05 -0.00021764095 0.0008763169 0.0010214723 -0.0033106632 -0.00134517 0.0030696243 0.0014199568
-0.00018129713 -0.002197636 -0.002230075 -0.0032651366 -0.0011881572 0.0012309568 0.002324178 0.001682921
-0.0032220415 -0.0021920106 -0.0005752534 0.0035260606 0.00052728725 -0.00094396755 0.0015080227 -0.0013883414
-0.0023592948 0.0026604931 -0.0016574217 -0.00073071616 -0.0036261352 0.002439541 0.0027616343 0.0013284406
-0.002541616 -0.003597469 -0.0029604526 0.0027181327 0.001750021 0.003067346 0.0019095445 0.00092253974
-3.5695066e-05 -0.0027721007 -0.0031229982 -0.003409415 0.0014921547 -0.0017896147 -0.00073358056 -0.0020977594
-0.0006642184 -0.0025655304 -0.0023817485 0.0012091105 -0.0010833029 0.0022502616 -0.0011693718 -0.002673907
-0.00064313295 -0.0017669402 -0.0011151797 -0.0034700946 0.002039386 -0.002537717 0.0018320788 0.0016540771
