models/saved_models/Baseline MLP4.pth (torch, 302652 bytes, 1 tensors)

1.weight f4 [1, 75264]
0	0xbb03d1e1	-0.0020114111
1	0xbb3b71fc	-0.0028601876
2	0xb996edf8	-0.0002878753
3	0xbb2df84a	-0.0026545697
4	0xbbd96866	-0.0066347597
5	0xbb034227	-0.0020028444
6	0xbb92b992	-0.004477688
7	0xba89289c	-0.0010464373
8	0xbb0037c1	-0.0019564482
9	0xba45e70c	-0.0007549382
10	0xbba83ab5	-0.0051339515
11	0xbb59bbb8	-0.0033223461
12	0xbb65e384	-0.0035078237
13	0xbbdabfc4	-0.0066756923
14	0xbbd19fcc	-0.006397223
15	0xbb773cd6	-0.003772547
16	0xbbae4528	-0.0053183027
17	0xb7f219d0	-2.8860668e-05
18	0xbb139f78	-0.002252547
19	0xbbc23a7f	-0.0059273834
20	0xbbe8a936	-0.0071002496
21	0xbb13adf2	-0.00225341
22	0xbbe149f5	-0.0068752714
23	0xbb836f16	-0.004011045
24	0xbb757e0e	-0.0037459168
25	0xba0d7395	-0.0005395946
26	0xbbeb5c8c	-0.0071826633
27	0xbbcd3878	-0.006262835
28	0xbbbb515c	-0.005716486
29	0xbb12493c	-0.0022321483
30	0xb83a8450	-4.446908e-05
31	0xba8b8a97	-0.0010646161
32	0xbae9240c	-0.0017787232
33	0xbb976c47	-0.004621062
34	0xbbd7dc48	-0.006587539
35	0xbbd0f7fd	-0.0063772188
36	0xbb8b7e2b	-0.0042569838
37	0xbba0c341	-0.0049060886
38	0xba93919c	-0.0011258605
39	0xbbb74cb0	-0.0055938587
40	0xbb119705	-0.0022215259
41	0xba62f572	-0.000865779
42	0xb9fd286b	-0.00048286034
43	0xbab37529	-0.0013691533
44	0xbb344d82	-0.0027512019
45	0xbb1e78d0	-0.0024180897
46	0xbb399c21	-0.002832182
47	0xbb090062	-0.002090477
48	0xbaee4422	-0.0018178264
49	0xbbb64e29	-0.0055635166
50	0xbba8ef40	-0.005155474
51	0xb9ce0af7	-0.0003929955
52	0xbada99a6	-0.0016677871
53	0xbbdb397a	-0.0066902013
54	0xbbabf416	-0.005247603
55	0xbaeee093	-0.0018224887
56	0xbb42eee2	-0.0029744436
57	0xbbb4d4ca	-0.0055185305
58	0xba3c001c	-0.0007171647
59	0xbb53acf9	-0.0032299145
60	0xbb00582b	-0.0019583802
61	0xbbbb2fe0	-0.0057124943
62	0xbba242f9	-0.0049518314
63	0xbae71706	-0.0017630763
64	0xbbb11cf7	-0.005405064
65	0xbbcaa1a2	-0.006183819
66	0xbbd8978c	-0.0066098627
67	0xbbd7e251	-0.0065882583
68	0xbb010020	-0.0019683912
69	0xbadb1fd4	-0.001671786
70	0xbb9d936d	-0.0048088343
71	0xbae60ddc	-0.0017551738
72	0xbaf9dfc6	-0.0019063882
73	0xba2b21c1	-0.0006528162
74	0xbba9a59c	-0.005177213
75	0xbb211212	-0.002457742
76	0xbbddd954	-0.0067702923
77	0xbbaf5e3b	-0.0053518093
78	0xba97cffa	-0.0011582368
79	0xbbe1f353	-0.0068954616
80	0xbbd32c74	-0.006444508
81	0xbbe3d372	-0.0069526965
82	0xbaba7bf0	-0.001422761
83	0xbb7997a8	-0.003808478
84	0xbbc258f0	-0.0059310123
85	0xba82217e	-0.0009928194
86	0xbbe508bf	-0.006989568
87	0xbb2236e8	-0.0024751965
88	0xbb92ebc9	-0.004483674
89	0xbbbdf67d	-0.005797206
90	0xbb4e55d6	-0.0031484268
91	0xbbd18e42	-0.0063951323
92	0xbbb176e4	-0.005415784
93	0xbb70de0e	-0.0036753449
94	0xbba5615f	-0.005047008
95	0xbb6c23f2	-0.0036032167
96	0xbbcc120e	-0.006227738
97	0xbb93a98e	-0.0045062965
98	0xbb35093f	-0.002762392
99	0xba898f2b	-0.0010494938
100	0xbbab609f	-0.005230024
101	0xbba20dbf	-0.0049454863
102	0xb97dbdac	-0.00024198618
103	0xbb27be56	-0.0025595627
104	0xbbafe420	-0.005367771
105	0xbba31b27	-0.004977602
106	0xbac8fc58	-0.0015333993
107	0xbab45053	-0.0013756849
108	0xbbe85b32	-0.0070909495
109	0xbbdaa7f1	-0.006672852
110	0xbb4c710a	-0.0031195306
111	0xbba2e999	-0.0049716947
112	0xbbeb2b8a	-0.007176821
113	0xbb811a9e	-0.0039399406
114	0xbb0c619c	-0.0021420484
115	0xbbd2b2ef	-0.006430022
116	0xbbce4a47	-0.0062954756
117	0xbbae67af	-0.0053224186
118	0xb769ab00	-1.3927696e-05
119	0xbbcf377d	-0.0063237534
120	0xbbacc925	-0.0052730017
121	0xbb0f3e7e	-0.0021857317
122	0xb9a069d8	-0.00030596438
123	0xbbb49127	-0.0055104676
124	0xbb936a8f	-0.0044987868
125	0xbae0166e	-0.0017096528
126	0xbba121b3	-0.0049173473
127	0xbb67d1d4	-0.003537287
128	0xbbc33dd7	-0.0059582996
129	0xbb902bd5	-0.0043997564
130	0xba8f95ce	-0.001095468
131	0xbbb6f847	-0.005583796
132	0xba6db4a0	-0.0009067748
133	0xbb92d413	-0.0044808476
134	0xbbe2de44	-0.006923469
135	0xbbb34cca	-0.0054718005
136	0xbb962ecc	-0.0045832153
137	0xbb1274fb	-0.0022347558
138	0xbb133864	-0.0022464031
139	0xbbeaeb1b	-0.00716914
140	0xbbb7ee48	-0.005613122
141	0xbb71af18	-0.0036878046
142	0xbb1a9e78	-0.002359299
143	0xbaebfb70	-0.0018004011
144	0xbb9d7a23	-0.0048058196
145	0xbba59cff	-0.005054116
146	0xbb2b3932	-0.002612662
147	0xbbce5c88	-0.0062976517
148	0xbbc19e3e	-0.0059087565
149	0xba91b816	-0.0011117484
150	0xbb833d26	-0.004005092
151	0xbb9db5bd	-0.0048129247
152	0xbb31e07a	-0.0027141855
153	0xbb9fccd2	-0.0048767114
154	0xb99bb00d	-0.00029695072
155	0xbbb5045e	-0.0055242022
156	0xbb941640	-0.004519254
157	0xbbc3efd8	-0.0059795193
158	0xbae3579a	-0.0017344833
159	0xbb8e2461	-0.004337833
160	0xba0c3e38	-0.00053498475
161	0xbb5649e8	-0.003269786
162	0xbaafdcbd	-0.0013417226
163	0xbb12f8f4	-0.002242622
164	0xbbac26ea	-0.0052536624
165	0xbb65a389	-0.0035040102
166	0xbbe82d2f	-0.0070854644
167	0xb9828a82	-0.0002489873
168	0xbb258090	-0.0025253631
169	0xbafa519e	-0.001909781
170	0xbb38befe	-0.0028190012
171	0xbb183dd6	-0.0023230216
172	0xbbc06ab2	-0.005872094
173	0xbb2f22dc	-0.0026723659
174	0xbaa623f1	-0.0012675506
175	0xbbd5c4a4	-0.0065236855
176	0xbb9f912a	-0.0048696
177	0xb96546fe	-0.00021865588
178	0xba336d7e	-0.0006844624
179	0xbbe1f217	-0.0068953144
180	0xbb8af647	-0.0042407843
181	0xbbc9fe9c	-0.006164385
182	0xbaf158d6	-0.0018413316
183	0xbae4023d	-0.0017395687
184	0xbb56bfc1	-0.0032768103
185	0xbaf60c60	-0.0018771999
186	0xbbb3acbd	-0.0054832385
187	0xba29eb27	-0.0006481879
188	0xba51c489	-0.00080020033
189	0xbaf77bef	-0.001888154
190	0xbbca1f67	-0.006168294
191	0xbb76a3b4	-0.0037634196
192	0xbad5c2b9	-0.0016308642
193	0xbbcf73e5	-0.0063309544
194	0xbbbcf59a	-0.0057665827
195	0xb8de7d74	-0.000106091524
196	0xbaa7ffb6	-0.0012817297
197	0xbbe50ae2	-0.0069898227
198	0xbb9216f1	-0.0044583012
199	0xbbb30584	-0.005463304
200	0xbac391f6	-0.0014920819
201	0xbbdbf5be	-0.0067126444
202	0xba086686	-0.00052032655
203	0xbac869e6	-0.0015290349
204	0xba4e0ab8	-0.00078598736
205	0xbbad2145	-0.005283507
206	0xbb85b120	-0.004079953
207	0xbb35825a	-0.0027696104
208	0xbb988724	-0.004654782
209	0xbbe44a89	-0.006966893
210	0xbaba9ff5	-0.0014238345
211	0xbb7cb26b	-0.0038558494
212	0xbbb6ad90	-0.0055748895
213	0xbb5345aa	-0.0032237568
214	0xbb0ed6c2	-0.0021795486
215	0xbbd8d2be	-0.0066169193
216	0xbbbdce8b	-0.005792444
217	0xbbc52bae	-0.00601717
218	0xb8814154	-6.163368e-05
219	0xbbcd5b68	-0.006267
220	0xbbb3229a	-0.0054667713
221	0xbbb99558	-0.005663555
222	0xbabeab32	-0.001454687
223	0xbba52581	-0.005039871
224	0xbb990b66	-0.0046705483
225	0xbb9d3b43	-0.0047983243
226	0xbb39589c	-0.0028281575
227	0xbb117a1f	-0.0022198034
228	0xbb8a1d17	-0.0042148936
229	0xbb089cb7	-0.0020845362
230	0xbbd4acf7	-0.0064903456
231	0xbb2e03ee	-0.0026552635
232	0xb86952b8	-5.5628567e-05
233	0xbb5642ec	-0.0032693697
234	0xbbb2f8e3	-0.0054617985
235	0xbb8d8134	-0.0043183807
236	0xbbd98a34	-0.0066387895
237	0xbb81dad7	-0.0039628553
238	0xbbd3809d	-0.006454541
239	0xbaf253d0	-0.0018488113
240	0xbb372ec4	-0.0027951458
241	0xbb8b9d1e	-0.004260673
242	0xbb9f7717	-0.0048664915
243	0xbb8400b5	-0.0040284046
244	0xbb0c3000	-0.0021390915
245	0xbb81acd7	-0.0039573717
246	0xbb2e086c	-0.0026555313
247	0xbb27baaa	-0.0025593438
248	0xbb895cb9	-0.0041919616
249	0xbbd7454c	-0.00656954
250	0xbb5dfaee	-0.003387149
251	0xbb29770c	-0.002585831
252	0xbb43a58e	-0.0029853317
253	0xbabda35c	-0.001446824
254	0xbbc941ea	-0.006141891
255	0xbb98ad1f	-0.0046593095
